…
tus":"ok","timestamp":1570355165585,"user_tz":-120,"elapsed":560,"user":{"displayName":"Mohamed Tayef","photoUrl":"https://lh3.googleusercontent.com/a-/AAuE7mDDo_mE705cJohp2y0PmDQkfsh1KfiZDIxr5inLYw=s64","userId":"03066964807322812654"}}},"source":["model.summary()"],"execution_count":22,"outputs":[{"output_type":"stream","text":["Model: \"sequential_4\"\n","_________________________________________________________________\n","Layer (type)                 Output Shape              Param #   \n","=================================================================\n","conv2d_5 (Conv2D)            (None, 62, 62, 16)        448       \n","_________________________________________________________________\n","max_pooling2d_4 (MaxPooling2 (None, 31, 31, 16)        0         \n","_________________________________________________________________\n","dropout_5 (Dropout)          (None, 31, 31, 16)        0         \n","_________________________________________________________________\n","conv2d_6 (Conv2D)            (None, 29, 29, 32)        4640      \n","_________________________________________________________________\n","max_pooling2d_5 (MaxPooling2 (None, 14, 14, 32)        0         \n","_________________________________________________________________\n","dropout_6 (Dropout)          (None, 14, 14, 32)        0         \n","_________________________________________________________________\n","flatten_2 (Flatten)          (None, 6272)              0         \n","_________________________________________________________________\n","dense_3 (Dense)              (None, 64)                401472    \n","_________________________________________________________________\n","dropout_7 (Dropout)          (None, 64)                0         \n","_________________________________________________________________\n","dense_4 (Dense)              (None, 1)                 65        \n","=================================================================\n","Total params: 406,625\n","Trainable params: 406,625\n","Non-trainable params: 0\n","_________________________________________________________________\n"],"name":"stdout"}]},{"cell_type":"code","metadata":{"id":"0HnhOgTuZCwS","colab_type":"code","colab":{}},"source":["model.compile(optimizer='Adam',loss='binary_cross
…
